model1.pth (torch, 2376 bytes, 3 tensors)

block_1.0.weight f4 [16, 4]
0.6844676 0.361864 1.2879477 -2.484706 0.8456554 0.62792516 1.0946997 -2.4244843
-0.29764348 -0.30264717 -0.44453168 -0.027592719 0.6812669 0.9951798 1.0549651 -2.3824418
0.0004809039 0.87905467 -3.2916467 -0.16751012 0.7034154 0.9885156 0.79508686 -1.9703275
-0.6874389 0.19075081 1.695902 -2.8460457 -0.5617417 0.327206 -3.1732411 -0.1321611
-0.32382512 -0.023752034 0.30796897 0.023983538 -0.5098075 0.13524327 1.7565333 -3.0168948
-0.19482414 0.5019682 -3.316928 -0.837375 0.3045936 0.13449581 0.19461837 0.20144382
-0.9972263 -0.90252495 -2.6238496 1.9420122 0.86029446 0.09257136 1.1938952 -2.5674112
0.46372616 -0.24065581 -0.2175554 -0.18273035 0.8448664 0.14283131 1.0044678 -2.325631
00000000: 4539 2f3f 3d46 b93e 78db a43f 6c05 1fc0
00000010: df7c 583f b4bf 203f 1f1f 8c3f c02a 1bc0
00000020: ba64 98be 92f4 9abe a899 e3be 200a e2bc
00000030: 8267 2e3f 1ac4 7e3f 1909 873f ed79 18c0
00000040: d421 fc39 ba09 613f 57aa 52c0 c687 2bbe
00000050: 0813 343f 5c0f 7d3f d08a 4b3f b133 fcbf
00000060: fffb 2fbf 2e54 433e 5113 d93f 9d25 36c0
00000070: 4ece 0fbf 8b87 a73e 6216 4bc0 3d55 07be
00000080: 68cc a5be a093 c2bc 1cae 9d3e 2079 c43c
00000090: bf82 02bf 367d 0a3e 15d6 e03f ce14 41c0
000000a0: fb7f 47be fd80 003f 8c48 54c0 355e 56bf
000000b0: b1f3 9b3e 45b9 093e 0a4a 473e 4a47 4e3e
000000c0: 394a 7fbf e00b 67bf 27ed 27c0 db93 f83f
000000d0: 423c 5c3f 0e96 bd3d 8fd1 983f 7750 24c0
000000e0: 846d ed3e 7a6e 76be d8c6 5ebe aa1d 3bbe
000000f0: 2a49 583f 5f42 123e 6792 803f 23d7 14c0

block_1.0.bias f4 [16]
-0.179824 -0.08330032 -0.32071072 -0.02412472 -0.20697658 -0.040494617 0.17136969 0.110822916
-0.40204084 0.06451925 -0.06204807 -0.2623352 0.15203135 -0.19938377 -0.37724423 -0.18604982
00000000: c823 38be 5c99 aabd 3234 a4be 34a1 c5bc
00000010: abf1 53be afdd 25bd 897b 2f3e 20f7 e23d
00000020: 4cd8 cdbe ab22 843d 1e26 7ebd cd50 86be
00000030: 1bae 1b3e 422b 4cbe 2826 c1be d883 3ebe

block_2.0.weight f4 [1, 16]
-0.3224694 -0.41529813 -0.12145132 -0.31804267 1.5187167 -0.18009882 -0.8272953 0.91085887
-0.12622246 -0.9103333 1.132292 0.1004627 0.98417604 -0.32847676 -0.016666183 -0.35592434
00000000: b61a a5be f5a1 d4be 78bb f8bd 7dd6 a2be
00000010: 4f65 c23f d36b 38be a0c9 53bf 0c2e 693f
00000020: 7640 01be 9a0b 69bf f2ee 903f 63bf cd3d
00000030: f6f2 7b3f 1b2e a8be 8587 88bc b73b b6be
