model1.pth (torch, 2376 bytes, 3 tensors)

block_1.0.weight f4 [16, 4]
0	0xbd465bd0	-0.048427403
1	0xbdffd580	-0.12491894
2	0xbd98bc88	-0.074578345
3	0xbdd36d90	-0.10323632
4	0x3f196dec	0.5993335
5	0x3f89f979	1.0779258
6	0x3f925c04	1.1434331
7	0xc00225a9	-2.0335486
8	0xbea2b77e	-0.31780618
9	0x3e075e99	0.1321968
10	0x3fd60330	1.6719723
11	0xc02f84ed	-2.7424881
12	0x3f17363d	0.59067136
13	0x3f8d2477	1.1026753
14	0x3f66897b	0.9005353
15	0xbffb8095	-1.9648615
16	0xbd960cef	-0.07326686
17	0x3f4ede13	0.8080761
18	0xc06d3754	-3.706502
19	0xbf1287f4	-0.572387
20	0xbee91c15	-0.45529237
21	0x3f1d2a12	0.6139232
22	0xc0694d89	-3.6453574
23	0xbea2633a	-0.3171633
24	0xbed4c302	-0.4155503
25	0x3ea811f0	0.32826185
26	0xbdc693d8	-0.09696168
27	0x3edece26	0.43516654
28	0x3f2e07e8	0.67980814
29	0x3e036679	0.12832059
30	0x3f885a92	1.065264
31	0xc00daf7c	-2.2138357
32	0xbe2ee59b	-0.17079775
33	0x3edacb30	0.42733145
34	0x3ea8b80c	0.32952917
35	0x3e63618a	0.22205177
36	0x3f14b102	0.5808259
37	0x3dea860e	0.1145135
38	0x3f91af22	1.1381571
39	0xc0173587	-2.362642
40	0xbd47ced3	-0.048781227
41	0xbea32c18	-0.31869578
42	0x3ec83ce5	0.3910896
43	0x3dd96919	0.10615749
44	0x3eeef2e9	0.466697
45	0x3ecd4bec	0.40096986
46	0x3f984522	1.1896098
47	0xc01a7fa7	-2.4140413
48	0xbde44478	-0.11145872
49	0x3d347670	0.044058263
50	0x3e9b1d22	0.30295664
51	0xbef0b3b0	-0.4701209
52	0xbeb2c016	-0.34912175
53	0xbee64040	-0.44970894
54	0x3dea4d98	0.11440581
55	0xbee942a4	-0.45558655
56	0xbe6cf5e4	-0.23140675
57	0x3d97d648	0.07413918
58	0x3c925260	0.017861545
59	0xbdcf4998	-0.10121459
60	0xbf4853b1	-0.782527
61	0xbf3e0cd7	-0.7423834
62	0xc0372937	-2.8618906
63	0x3fa54ad6	1.2913463

block_1.0.bias f4 [16]
0	0xbebb0d20	-0.3653345
1	0x38b0c453	8.428902e-05
2	0xbce787cb	-0.028262993
3	0xbd1850c4	-0.0371864
4	0xbe1386ea	-0.14406934
5	0x3d7345ff	0.059392925
6	0xbed984ca	-0.42484123
7	0xbd8e5237	-0.06949275
8	0xbe6d78bc	-0.23190588
9	0xbdcf9e41	-0.101376064
10	0xbe346f8c	-0.17620677
11	0xbde887c8	-0.11354023
12	0xbeb9a77e	-0.362606
13	0xbea6d862	-0.32586962
14	0xbef3846e	-0.47561973
15	0x3e2cd966	0.16879806

block_2.0.weight f4 [1, 16]
0	0xbe34dc3a	-0.17662135
1	0xbeb06982	-0.34455496
2	0xbfb4894d	-1.4104401
3	0xbec60e7b	-0.38682923
4	0x3fcf3ad0	1.6189823
5	0x3f96ffb4	1.1796784
6	0xbc6c07a0	-0.014406115
7	0xbecee115	-0.404061
8	0x3e48456e	0.19557735
9	0xbf122abe	-0.5709647
10	0x3cad24c5	0.021135697
11	0xbec902b5	-0.39259878
12	0xbe6e0280	-0.23243141
13	0x3e522130	0.20520473
14	0xbdcd3c28	-0.100212395
15	0x3f9dd639	1.2331
